app/src/main/ml/compression_NN2.tflite (tflite, 394612 bytes, 2 tensors)

model_37/dense_123/MatMul/ReadVariableOp/transpose f4 [128, 768]
-0.024002068 -0.07715934 0.26824656 -0.23343892 -0.21246666 0.25207895 -0.04120561 0.098901354
-0.2949669 0.19771805 0.094597474 -0.07062817 0.011959536 -0.08359835 0.114079624 -0.008479973
-0.09018218 -0.14099519 0.10654368 0.053667706 -0.14924465 -0.108654656 0.2714546 -0.107136235
0.08433337 -0.1492121 0.3258672 -0.21436912 0.09619219 0.101392776 -0.2231312 0.19794396
-0.088306285 0.15355633 -0.27202785 0.24437226 0.06393486 -0.11642756 -0.04238619 0.11267227
0.014084722 -0.1600053 0.036983836 -0.04575914 -0.010125482 0.011974481 -0.120997176 0.104458846
0.033854026 -0.10466711 0.16972747 -0.049519006 -0.057779495 0.10627091 -0.06405709 0.020273054
-0.15054 0.18491982 -0.20044884 0.18896551 -0.27143586 0.18920697 0.04777179 -0.17699696
-0.02600239 0.117035046 -0.07389711 -0.14893362 -0.019927897 0.15824956 -0.2043421 0.08210732
-0.0062946538 0.1490502 -0.12634993 0.15901077 0.034166027 -0.097609386 0.12522943 -0.09168072
-0.053906903 0.050451316 -0.14935538 0.012031319 0.14090092 -0.20216046 0.11027561 0.09858622
0.056526683 -0.044940498 0.1350154 -0.027196066 0.22273183 -0.2674081 0.13704382 0.043481987
-0.04685634 -0.09259611 0.083297096 -0.08526395 0.08405534 -0.18639112 0.07144884 0.050286602
-0.1849185 0.063441165 0.18109073 -0.29711917 0.20032772 0.13783261 -0.15884021 0.055700153
0.1910727 -0.143405 0.14724019 -0.048957724 0.04018557 0.10534909 -0.03122361 0.033041798
0.16084309 -0.069925755 0.10171897 -0.03694415 0.0702807 -0.06197808 0.0264917 -0.09821362
0.011377017 -0.019549605 -0.04722325 -0.08352371 0.1090592 -0.023633324 -0.024813903 -0.032395948
0.17499049 -0.21502307 0.09330975 0.06632705 -0.35148692 0.31220332 -0.100407176 -0.25205517
0.13243802 0.15280095 -0.14119636 -0.0634923 0.23675081 0.04302163 -0.047452476 0.04220346
-0.0073325946 0.19756679 -0.15098575 -0.13323025 0.12721616 0.046036735 -0.2426892 0.16513613
-0.13580784 0.14059715 0.0075168987 -0.007873991 0.016958127 0.08758239 0.19575088 -0.17010188
0.06337882 0.06477529 0.11198825 -0.09800345 -0.15456612 0.25029662 -0.027409488 -0.22011891
0.20609224 -0.17738388 0.092117116 -0.056723807 0.01718797 -0.18499611 0.1683544 -0.0677068
-0.008049996 -0.14897369 0.26196092 -0.09417906 0.048987135 -0.039674584 0.19161701 -0.083954
0.0234165 0.14149785 -0.18571 0.07847747 0.050227884 -0.14216019 0.035574567 0.013275596
-0.056947775 0.00095615326 0.17289193 -0.24993747 0.2455318 0.017847208 -0.0578734 0.10669622
0.02067974 -0.027633239 0.08011866 -0.0058342954 -0.11060461 0.059485096 0.03639651 -0.17566682
0.11502357 -0.16850956 0.12776636 -0.024408374 -0.13349822 0.15466505 -0.009865066 0.08865184
-0.1312508 0.2190805 -0.07005294 0.08788825 0.042880666 -0.17150211 0.20287742 -0.019373357
-0.132098 0.0019115516 0.15747115 -0.16551018 0.17112787 -0.16704673 0.15889257 0.10520923
-0.075953044 -0.06313575 0.20983018 -0.013223563 -0.18095931 0.15124035 -0.07471748 0.024710381
-0.023445666 -0.054861564 0.0885236 -0.055210076 0.05808885 -0.12931934 0.23806642 -0.27031478
00000000: fc9f c4bc b705 9ebd 9d57 893e 9d0a 6fbe
00000010: dc90 59be 7e10 813e 37c7 28bd cb8c ca3d
00000020: e705 97be 9a76 4a3e 52bc c13d 81a5 90bd
00000030: eef1 433c 9d35 abbd 94a2 e93d 96ef 0abc
00000040: 6fb1 b8bd 0b61 10be 9333 da3d abd2 5b3d
00000050: 97d3 18be 5586 debd 19fc 8a3e 3e6a dbbd
00000060: f9b6 ac3d 0fcb 18be 11d8 a63e 9483 5bbe
00000070: 6900 c53d 04a7 cf3d 817c 64be d2b1 4a3e
00000080: edd9 b4bd df3d 1d3e 3c47 8bbe b93c 7a3e
00000090: 48f0 823d 9371 eebd 249d 2dbd b8c0 e63d
000000a0: 9bc3 663c 6ed8 23be 5d7c 173d f06d 3bbd
000000b0: 5ae5 25bc 9d30 443c 5ecd f7bd 85ee d53d
000000c0: 85aa 0a3d b65b d6bd 0acd 2d3e 71d4 4abd
000000d0: 31aa 6cbd 90a4 d93d 5d30 83bd ad13 a63c
000000e0: 2827 1abe 9f5b 3d3e 7642 4dbe 2d80 413e
000000f0: a4f9 8abe 79bf 413e 5aac 433d b13e 35be
00000100: f702 d5bc 12b0 ef3d 5e57 97bd 0e82 18be
00000110: d43f a3bc 2c0c 223e 0e3f 51be e227 a83d
00000120: 6243 cebb 9ea0 183e e061 01be b8d3 223e
00000130: adf1 0b3d 6ee7 c7bd 253c 003e 1ac3 bbbd
00000140: 7ccd 5cbd 0aa6 4e3d 9ef0 18be 021f 453c
00000150: 5548 103e 2703 4fbe 2ed8 e13d 92e7 c93d
00000160: 8688 673d 8713 38bd 7a41 0a3e 49ca debc
00000170: d013 643e b7e9 88be 3755 0c3e 2b1a 323d
00000180: 6fec 3fbd 08a3 bdbd ab97 aa3d de9e aebd
00000190: 3525 ac3d 50dd 3ebe c553 923d 53f9 4d3d
000001a0: 465b 3dbe 71ed 813d d96f 393e 0120 98be
000001b0: b622 4d3e fe23 0d3e 02a7 22be d825 643d
000001c0: 90a8 433e c3d8 12be 22c6 163e e587 48bd
000001d0: a099 243d 44c1 d73d a8c8 ffbc d656 073d
000001e0: 0db4 243e 3c35 8fbd 0952 d03d c052 17bd
000001f0: 54ef 8f3d badc 7dbd 1f05 d93c 3924 c9bd
00000200: ab66 3a3c 7e26 a0bc 2b6d 41bd 7b0e abbd
00000210: 6e5a df3d ac9a c1bc 8746 cbbc 9db1 04bd
00000220: b530 333e 022f 5cbe 2f19 bf3d 7ad6 873d
00000230: 18f6 b3be 1dd9 9f3e 47a2 cdbd 600d 81be
00000240: d59d 073e da77 1c3e c795 10be 4008 82bd
00000250: ce6e 723e 7337 303d 875d 42bd 89dd 2c3d
00000260: 4346 f0bb f34e 4a3e 029c 1abe 836d 08be
00000270: f444 023e 0491 3c3d 8583 78be 7219 293e
00000280: 3611 0bbe b3f8 0f3e 5150 f63b e901 01bc
00000290: c5eb 8a3c 655e b33d eb72 483e 302f 2ebe
000002a0: c1cc 813d e8a8 843d 185a e53d 08b6 c8bd
000002b0: 9546 1ebe e126 803e dd89 e0bc da66 61be
000002c0: d809 533e 1fa4 35be e6a7 bc3d 3957 68bd
000002d0: c9cd 8c3c 9f6f 3dbe 1965 2c3e dda9 8abd
000002e0: 21e4 03bc 8f8c 18be be1f 863e f3e0 c0bd
000002f0: bca6 483d d181 22bd 4037 443e 13f0 abbd
00000300: f6d3 bf3c d0e4 103e c32a 3ebe ccb8 a03d
00000310: c1bb 4d3d 7192 11be a3b6 113d e381 593c
00000320: 1242 69bd 5ca6 7a3a 950a 313e 9cef 7fbe
00000330: b06c 7b3e 4f34 923c a90c 6dbd 8c83 da3d
00000340: 8f68 a93c 1a5f e2bc 4115 a43d 9e2d bfbb
00000350: ab84 e2bd a5a6 733d 8214 153d 01e2 33be
00000360: 7a91 eb3d c58d 2cbe 2fd5 023e 12f4 c7bc
00000370: c2b3 08be 8460 1e3e 16a1 21bc 198f b53d
00000380: 9c66 06be a356 603e ea77 8fbd c1fe b33d
00000390: a3a3 2f3d 409e 2fbe 19bf 4f3e e0b4 9ebc
000003a0: b344 07be 078d fa3a 1e40 213e 807b 29be
000003b0: 253c 2f3e 4c0e 2bbe bcb4 223e f077 d73d
000003c0: 458d 9bbd 514d 81bd b9dd 563e a5a7 58bc
000003d0: 664d 39be c0de 1a3e 7a05 99bd 6d6d ca3c
000003e0: 2011 c0bc 85b6 60bd dc4b b53d f623 62bd
000003f0: 93ee 6d3d 4a6c 04be afc7 733e b366 8abe

model_37/dense_123/MatMul_bias f4 [128]
0.017393993 -0.019543627 -0.030390095 -0.038643174 0.014984903 -0.04897212 0.0234624 0.0003056512
-0.055368215 -0.048942734 -0.036460903 -0.049145915 0.012303302 -0.032328993 0.0063593877 -0.029810518
-0.036971595 -0.020272734 -0.07254593 -0.099091075 -0.008475918 -0.0053448724 -0.046258293 -0.08887147
-0.061454296 -0.028820498 -0.0009639557 0.023543999 -0.027370004 -0.027039208 -0.092513815 -0.03064678
-0.034964703 -0.0232745 -0.055339273 -0.002943221 0.0039149867 -0.07256675 -0.024354048 -0.04041471
-0.057989776 -0.021010725 0.010942072 -0.042885944 -0.045126628 -0.08838909 -0.029836489 -0.08120126
-0.033708327 0.009643608 -0.055079117 -0.060103998 -0.03319374 -0.049542114 -0.013982943 0.009057176
-0.019777823 -0.067328505 -0.031095484 -0.06409334 -0.041083697 -0.055342127 -0.016575981 -0.006286178
-0.06293922 -0.05781851 -0.01883822 -0.037552297 -0.07456085 -0.056159712 -0.040363144 -0.06509952
-0.0004978289 -0.045560677 -0.017542453 -0.06897733 -0.014941822 -0.0145840235 -0.027680146 -0.04882467
-0.06707605 -0.0271165 -0.0668664 -0.0218565 -0.04533338 -0.05074894 -0.048454493 -0.018258821
-0.008272957 -0.014357721 -0.056382604 -0.11708967 -0.02004946 -0.08211804 -0.057923112 -0.02707838
-0.08052046 -0.059512455 -0.059901234 -0.034486074 -0.0699889 -0.039190874 -0.039755695 -0.047169466
-0.030047655 -0.053007003 -0.012548851 -0.012574696 -0.06931503 -0.0439736 -0.05584585 -0.013206672
-0.045042936 -0.026341053 -0.06033072 -0.02102433 -0.095953286 -0.055123594 -0.034508374 -0.07024132
-0.070306875 -0.03609571 -0.031671505 -0.07601276 0.0026307632 -0.0038974448 -0.03256892 -0.082632564
00000000: d97d 8e3c f519 a0bc a6f4 f8bc 4e48 1ebd
00000010: 3d83 753c fd96 48bd 3834 c03c cf3f a039
00000020: c8c9 62bd 2d78 48bd 0758 15bd 3a4d 49bd
00000030: ca93 493c 686b 04bd 6962 d03b 3035 f4bc
00000040: 876f 17bd 0113 a6bc f692 94bd 43f0 cabd
00000050: 94de 0abc 0a24 afbb 5679 3dbd 3f02 b6bd
00000060: 80b7 7bbd f718 ecbc f9b1 7cba 58df c03c
00000070: 0f37 e0bc 5481 ddbc e277 bdbd f50e fbbc
00000080: 2637 0fbd 2aaa bebc 6fab 62bd 0ee3 40bb
00000090: 4a49 803b e09d 94bd 2482 c7bc e589 25bd
000000a0: b086 6dbd af1e acbc 6046 333c 2ca9 2fbd
000000b0: b3d6 38bd 5705 b5bd a76b f4bc d94c a6bd
000000c0: be11 0abd 3900 1e3c a49a 61bd 9c2f 76bd
000000d0: 29f6 07bd acec 4abd b718 65bc 8d64 143c
000000e0: 1a05 a2bc 87e3 89bd f5bb febc 5e43 83bd
000000f0: 6147 28bd 6dae 62bd 5aca 87bc 48fc cdbb
00000100: 47e6 80bd 1ad3 6cbd 9c52 9abc 70d0 19bd
00000110: 5cb3 98bd ba07 66bd d353 25bd e652 85bd
00000120: bb80 02ba d59d 3abd 31b5 8fbc fd43 8dbd
00000130: 8bce 74bc d4f1 6ebc 79c1 e2bc 61fc 47bd
00000140: 2b5f 89bd 6c23 debc 40f1 88bd 670c b3bc
00000150: 7faf 39bd 1fde 4fbd 3878 46bd 8693 95bc
00000160: 4c8b 07bc a63c 6bbc 72f1 66bd b5cc efbd
00000170: c43e a4bc 812d a8bd c940 6dbd 7bd3 ddbc
00000180: e9e7 a4bd 55c3 73bd ff5a 75bd 4541 0dbd
00000190: 5756 8fbd 9c86 20bd ded6 22bd c534 41bd
000001a0: 8026 f6bc df1d 59bd b299 4dbc 1906 4ebc
000001b0: 0af5 8dbd a91d 34bd 9ebe 64bd cc60 58bc
000001c0: f17e 38bd 31c9 d7bc 581d 77bd 373b acbc
000001d0: 2883 c4bd 47c9 61bd a758 0dbd aeda 8fbd
000001e0: 0dfd 8fbd 18d9 13bd fbb9 01bd 94ac 9bbd
000001f0: e268 2c3b 466c 7fbb fd66 05bd 433b a9bd
