SeizureDetection/app/src/main/ml/compression_NN1.tflite (tflite, 591468 bytes, 2 tensors)

model_35/dense_119/MatMul/ReadVariableOp/transpose f4 [192, 768]
0.065411136 -0.001401045 -0.13289036 0.114398934 0.18615896 -0.19358371 0.114542946 -0.14938074
0.17820759 0.0032317974 -0.10974348 0.1584008 -0.0011891698 -0.009190749 0.014914793 0.06755693
-0.060354467 -0.0060908236 -0.00020385203 0.13752006 -0.18420847 0.202501 -0.20604132 0.3285723
-0.14826155 -0.06738875 0.14944719 -0.012448875 0.048004914 -0.13994142 0.17777403 0.027028846
-0.033690993 0.09286078 -0.12898104 0.15054445 0.024104709 -0.18471076 0.16214012 -0.10960084
0.13220161 -0.029616883 -0.15310512 0.23586483 -0.17595217 -0.009168044 0.13568838 -0.1801832
0.18912834 0.00023685265 -0.042371217 0.0016280721 0.11237409 -0.032809854 -0.113652825 0.06595834
0.23268232 -0.21185958 -0.045960903 0.34209687 -0.25836796 0.05038447 0.010229698 0.14491463
-0.1477261 0.1640987 -0.011047144 -0.1082725 0.10135614 0.031701986 -0.2319748 0.19723608
0.030263446 -0.095857576 0.053850908 0.21295364 -0.16967574 -0.047910787 0.21264897 -0.07095584
-0.12643553 -0.0003465206 0.29064366 -0.27267462 0.17649323 -0.18578812 0.1813088 0.083775066
-0.27909535 0.14670481 0.08154025 -0.10291132 0.054101538 0.084598355 -0.23516391 0.20067334
0.09907053 -0.24373846 0.08083252 0.032936092 0.07393145 -0.12410721 0.087605014 -0.09115339
0.2242434 -0.18427165 0.11924661 -0.071762815 0.036501307 0.14681815 -0.17262839 0.095932364
0.03722524 0.070450686 -0.11685309 0.1425863 -0.12050577 0.01980638 0.09340838 -0.12008393
0.12286434 -0.022789365 0.05068879 0.14894396 -0.14282425 -0.06657361 0.13018402 0.028172543
-0.27380484 0.2829464 -0.056155995 -0.01001495 0.048958257 0.084181234 -0.1089846 0.03325251
0.10834761 -0.071181245 -0.021337148 0.17731482 -0.14027865 0.041624952 0.013253172 -0.0301753
-0.100030325 0.21447824 -0.1748174 0.03784299 0.06813291 -0.039126966 -0.0037916792 -0.063109696
-0.007954648 0.10611733 -0.053865045 -0.13064586 0.1530572 0.02361137 -0.12889165 -0.07708503
0.28383124 -0.20882806 0.019475766 0.092785425 0.01114329 0.03496191 -0.08556275 -0.012847188
0.21055305 -0.28868124 0.21595946 -0.13532689 0.10387706 -0.097002305 0.05981623 -0.010386554
-0.07378218 0.14214422 -0.084954426 -0.029946866 0.09488913 -0.09613266 0.082071714 -0.15221639
0.076606765 0.11662598 -0.15026985 0.059205372 0.049690828 0.04049263 -0.11394102 0.06909033
-0.055633575 -0.05779732 0.08448048 0.069969505 -0.24087113 0.16269314 0.1800327 -0.25012273
-0.0035508666 0.18665786 -0.041885488 -0.1035893 0.10383967 0.107115835 -0.075386964 -0.11511076
0.2535063 -0.19484477 -0.041740034 0.26461884 -0.29353803 0.25482866 -0.06642708 -0.06019108
0.0025708089 0.16822563 -0.2712049 0.13090871 0.08738173 -0.15051775 0.02770942 0.063345596
-0.10783897 0.07013255 0.03936857 -0.16723394 0.22175895 -0.060907606 -0.10415127 0.13700017
0.04170118 -0.16985987 0.18811429 -0.05458604 0.008584386 0.019410362 -0.009128193 0.16983247
-0.25518212 0.20813736 -0.01531457 -0.13773224 0.14359076 -0.10967542 0.035652597 0.08288184
-0.23100443 0.2498617 -0.14561589 0.11716 -0.02302303 -0.0027621004 0.008054679 0.08435444
00000000: 46f6 853d 45a3 b7ba 6914 08be fd49 ea3d
00000010: 74a0 3e3e cf3a 46be 7e95 ea3d 44f7 18be
00000020: 0d7c 363e 90cc 533b 31c1 e0bd d233 223e
00000030: ebdd 9bba cc94 16bc 2d5d 743c 4a5b 8a3d
00000040: 3f36 77bd 8895 c7bb 1dc1 55b9 0fd2 0c3e
00000050: 25a1 3cbe 6c5c 4f3e 7ffc 52be a13a a83e
00000060: e0d1 17be 1d03 8abd af08 193e 5ef6 4bbc
00000070: cda0 443d ce4c 0fbe 650a 363e 996b dd3c
00000080: 91ff 09bd cb2d be3d 9b13 04be 5328 1a3e
00000090: 3d77 c53c d124 3dbe 0f08 263e 6876 e0bd
000000a0: dc5f 073e 1b9f f2bc 97c7 1cbe 8d86 713e
000000b0: ce2c 34be 9035 16bc e5f1 0a3e f281 38be
000000c0: dcaa 413e a65b 7839 718d 2dbd 0965 d53a
000000d0: 6324 e63d a063 06bd d0c2 e8bd 2b15 873d
000000e0: 4644 6e3e b8f1 58be 8041 3cbd 5227 af3e
000000f0: ce48 84be f25f 4e3d 779a 273c 8064 143e
00000100: 8345 17be 7d09 283e 15ff 34bc f9bd ddbd
00000110: cf93 cf3d f1d9 013d cd8a 6dbe 41f8 493e
00000120: 0ceb f73c fa50 c4bd c592 5c3d 8510 5a3e
00000130: 7abf 2dbe 1a3e 44bd a7c0 593e 4c51 91bd
00000140: 5178 01be 35ad b5b9 3fcf 943e 029c 8bbe
00000150: a4ba 343e 3e3f 3ebe 04a9 393e 4392 ab3d
00000160: 96e5 8ebe c939 163e 93fe a63d 2cc3 d2bd
00000170: 9399 5d3d e741 ad3d cfce 70be 507d 4d3e
00000180: 7de5 ca3d 9396 79be 858b a53d ffe7 063d
00000190: 5f69 973d ec2b febd 426a b33d a1ae babd
000001a0: 10a0 653e b5b1 3cbe 9137 f43d 62f8 92bd
000001b0: 6582 153d 7f57 163e 7fc5 30be 3078 c43d
000001c0: 7e79 183d 7348 903d ac50 efbd 2502 123e
000001d0: bbcb f6bd fd40 a23c e54c bf3d 90ee f5bd
000001e0: 4da0 fb3d c3b0 babc 0c9f 4f3d c484 183e
000001f0: 8540 12be bf57 88bd f64e 053e 1bca e63c
00000200: 2630 8cbe 5ade 903e d403 66bd bf15 24bc
00000210: 7488 483d 3667 ac3d 5133 dfbd c933 083d
00000220: 5ae5 dd3d 79c7 91bd 3ecb aebc 0492 353e
00000230: 35a5 0fbe ed7e 2a3d d523 593c 3132 f7bc
00000240: b3dc ccbd 2fa0 5b3e 5503 33be 4001 1b3d
00000250: 4489 8b3d 9943 20bd d27d 78bb a83f 81bd
00000260: 3654 02bc 0b54 d93d 98a1 5cbd 07c8 05be
00000270: 07bb 1c3e a26c c13c 2cfc 03be c2de 9dbd
00000280: 5452 913e 06d7 55be a48b 9f3c 4906 be3d
00000290: 5992 363c 3834 0f3d 863b afbd 037d 52bc
000002a0: 389b 573e 07ce 93be 7a24 5d3e 2293 0abe
000002b0: 7fbd d43d 25a9 c6bd dd01 753d 5d2c 2abc
000002c0: 1d1b 97bd 418e 113e 96fc adbd 2153 f5bc
000002d0: 3b55 c23d 33e1 c4bd 3715 a83d 9dde 1bbe
000002e0: 02e4 9c3d 9ad9 ee3d 57e0 19be 5581 723d
000002f0: 9c88 4b3d 9adb 253d e959 e9bd 3b7f 8d3d
00000300: 08e0 63bd e2bc 6cbd 1a04 ad3d 2c4c 8f3d
00000310: eca6 76be 0899 263e 7e5a 383e 1610 80be
00000320: a8b5 68bb 3d23 3f3e 1e90 2bbd a026 d4bd
00000330: e5a9 d43d 8c5f db3d 7b64 9abd 31bf ebbd
00000340: 94cb 813e 6385 47be 99f7 2abd 1f7c 873e
00000350: 9e4a 96be e778 823e ec0a 88bd ec8a 76bd
00000360: 047b 283b 5743 2c3e 5edb 8abe ef0c 063e
00000370: 31f5 b23d 5321 1abe defe e23c 56bb 813d
00000380: aeda dcbd a8a1 8f3d f040 213d 603f 2bbe
00000390: c714 633e 417a 79bd 434d d5bd c649 0c3e
000003a0: dbce 2a3d bfef 2dbe 08a1 403e 9d95 5fbd
000003b0: 86a5 0c3c 7b02 9f3c 6b8e 15bc 90e8 2d3e
000003c0: 3ba7 82be f621 553e f6e9 7abc ae09 0dbe
000003d0: 7509 133e 829d e0bd 7508 123d f4bd a93d
000003e0: 6d8c 6cbe bfdb 7f3e 551c 15be 95f1 ef3d
000003f0: cb9a bcbc 5b04 35bb c6f7 033c 05c2 ac3d

model_35/dense_119/MatMul_bias f4 [192]
-0.08192531 -0.040553946 -0.051007356 -0.01641467 -0.024287662 -0.019202605 -0.01674021 -0.038477447
-0.045413826 -0.026739711 -0.043015886 -0.024107864 -0.011116754 -0.026711006 -0.0015306863 -0.055085734
-0.062022388 -0.05099581 -0.049134415 -0.0740185 0.005782397 -0.021528024 -0.062519215 -0.02607141
-0.038920525 0.010646453 -0.05075245 -0.046807267 -0.018769752 -0.00908449 -0.056366492 -0.043852087
-0.027256578 -0.035786696 -0.03357945 -0.034201913 -0.047236316 -0.073357545 -0.03639251 -0.03705656
-0.0159597 -0.059105784 -0.010657344 0.00054390146 0.02934447 -0.012035091 -0.029945606 -0.013070039
-0.02683214 -0.058063302 -0.07062589 -0.0056289965 -0.033516563 -0.022257406 -0.05503324 -0.041307177
-0.006901874 -0.02414059 -0.0232741 -0.031036953 -0.042663116 0.007702098 -0.030961715 -0.016570512
-0.040830083 -0.03309353 -0.050094035 -0.027020218 -0.056716952 -0.03729091 -0.0046701413 -0.039037604
-0.0011265386 -0.042265 -0.05842568 -0.076913185 -0.02595935 -0.024311917 -0.04890687 -0.049355425
-0.025102321 -0.0187488 -0.04444481 -0.011514078 -0.02855146 0.012563811 -0.04462712 -0.0014748579
-0.024295438 -0.0337895 -0.031847198 -0.04467902 -0.045347273 -0.046210796 -0.03229615 -0.023297345
-0.056976307 -0.052511092 0.013841192 -0.05021907 -0.0911219 -0.045735292 -0.0581989 -0.03481356
-0.04945809 -0.011037003 -0.022509038 -0.021142848 -0.08512028 -0.072563246 -0.07354066 -0.04990317
0.01690643 -0.022395657 -0.037144337 -0.070645876 -0.01797817 -0.046324104 -0.018782258 -0.01397473
-0.06367341 -0.04364181 -0.008381959 -0.024169195 -0.04825899 -0.09457921 -0.028193539 -0.0035683825
-0.03703029 -0.04420058 -0.053599462 -0.052666627 -0.035060454 -0.040475134 -0.04844795 -0.011239901
-0.052951925 -0.030716289 -0.02744048 -0.05503322 -0.03874223 -0.07124086 -0.004024516 -0.05118691
-0.08343733 -0.056355543 0.010062339 -0.040655266 -0.02582716 -0.04189207 -0.0298103 -0.08275941
-0.04681022 -0.05668055 -0.072815776 -0.05498473 -0.07869501 -0.068422526 -0.048857607 -0.04923039
-0.0009681523 -0.019136794 -0.03571332 -0.082215905 -0.046027206 -0.021447523 -0.049424708 -0.02329209
-0.018705323 -0.05789738 -0.02393843 -0.03438773 -0.052704852 -0.029545292 -0.03990846 -0.019259123
-0.022302378 -0.048425723 -0.10758226 -0.079896934 -0.01744561 -0.051726457 -0.08140353 -0.019005617
-0.073475875 -0.08183233 0.0030140013 -0.00861205 -0.028453248 -0.07501412 -0.019818839 -0.04798026
00000000: 75c8 a7bd e51b 26bd 17ed 50bd 0f78 86bc
00000010: ebf6 c6bc c84e 9dbc c422 89bc 879a 1dbd
00000020: d903 3abd 3d0d dbbc 6d31 30bd db7d c5bc
00000030: 0c23 36bc 0ad1 dabc 4fa1 c8ba 94a1 61bd
00000040: 300b 7ebd fce0 50bd 2b41 49bd 0397 97bd
00000050: 437a bd3b 8a5b b0bc 130a 80bd b693 d5bc
00000060: 216b 1fbd 766e 2e3c cde1 4fbd fab8 3fbd
00000070: 06c3 99bc 1dd7 14bc 8de0 66bd 3f9e 33bd
00000080: 3049 dfbc 1295 12bd 9b8a 09bd 4e17 0cbd
00000090: de7a 41bd 7b3c 96bd 5010 15bd 9fc8 17bd
000000a0: ebbd 82bc e818 72bd 249c 2ebc 9c94 0e3a
000000b0: d063 f03c d52e 45bc 7d50 f5bc b823 56bc
000000c0: 13cf dbbc c9d3 6dbd 4ea4 90bd 7273 b8bb
000000d0: aa48 09bd 2a55 b6bc 896a 61bd b731 29bd
000000e0: 1e29 e2bb 7dc2 c5bc 53a9 bebc 3541 febc
000000f0: 85bf 2ebd e261 fc3b 6ca3 fdbc e2be 87bc
00000100: 723d 27bd 158d 07bd 672f 4dbd 8159 ddbc
00000110: 0950 68bd 5abe 18bd fc07 99bb e5e5 1fbd
00000120: 5da8 93ba 111e 2dbd c44f 6fbd a984 9dbd
00000130: b4a8 d4bc c929 c7bc 9252 48bd ea28 4abd
00000140: 62a3 cdbc 1597 99bc c30b 36bd 8ba5 3cbc
00000150: c0e4 e9bc 71d8 4d3c edca 36bd 0550 c1ba
00000160: 3a07 c7bc dc66 0abd 3572 02bd 5901 37bd
00000170: 10be 39bd 8847 3dbd f848 04bd 13da bebc
00000180: fd5f 69bd df15 57bd 2bc6 623c 83b2 4dbd
00000190: 1e9e babd ee54 3bbd f861 6ebd aa98 0ebd
000001a0: 9194 4abd 8cd4 34bc e064 b8bc c433 adbc
000001b0: 8b53 aebd 0a9c 94bd 7c9c 96bd 4467 4cbd
000001c0: 5a7f 8a3c 1977 b7bc a924 18bd c9ae 90bd
000001d0: f546 93bc 58be 3dbd 40dd 99bc 44f6 64bc
000001e0: 3467 82bd c1c1 32bd 7c54 09bc 7afe c5bc
000001f0: 38ab 45bd bfb2 c1bd 23f6 e6bc 86db 69bb
00000200: 13ad 17bd ab0b 35bd 1c8b 5bbd f6b8 57bd
00000210: 8d9b 0fbd 41c9 25bd 5c71 46bd 9027 38bc
00000220: 1ee4 58bd baa0 fbbc dcca e0bc 846a 61bd
00000230: 2cb0 1ebd bae6 91bd 16e0 83bb 5ea9 51bd
00000240: 31e1 aabd 12d5 66bd 82dc 243c 2386 26bd
00000250: 7b93 d3bc 0597 2bbd bb34 f4bc c47d a9bd
00000260: 13bc 3fbd dd29 68bd 7020 95bd ab37 61bd
00000270: d92a a1bd 1c21 8cbd ea1e 48bd cea5 49bd
00000280: 9acb 7dba c4c4 9cbc 2148 12bd d060 a8bd
00000290: 0687 3cbd b7b2 afbc 9071 4abd 0ecf bebc
000002a0: e83b 99bc ce25 6dbd 871a c4bc 26da 0cbd
000002b0: 0be1 57bd f808 f2bc 0e77 23bd 4fc5 9dbc
000002c0: 7ab3 b6bc 0d5a 46bd 1754 dcbd 01a1 a3bd
000002d0: 19ea 8ebc 1fdf 53bd e5b6 a6bd abb1 9bbc
000002e0: 857a 96bd b597 a7bd 8d86 453b 8e19 0dbc
000002f0: c916 e9bc 01a1 99bd 1e5b a2bc f386 44bd
